neural_net_parser/ex.pth (torch, 246227 bytes, 10 tensors)

weight f4 [6, 1, 3, 3]
00000000: d020 38be 9ab8 163e 76f0 9ebe 247e a7bd
00000010: 0633 adbd 266e b1bd 00b0 d73b b04b bbbd
00000020: d613 323e 5e2f 9cbe 905d d6bd 0b2e 53be
00000030: e607 6ebe 8004 4ebe c4e9 89bd a6c0 2e3e
00000040: 6910 953e ba93 5a3e 4808 0b3e 01a7 883e
00000050: 03ff 7bbe 79ef 943e 8465 ad3d b0bb ddbd
00000060: 7004 a5be 98c9 98be 6646 7cbe 2427 9ebe
00000070: 6649 28be 44b4 8abe f003 4fbe 9674 d7bd
00000080: e8b6 56bd b0f6 b03c 3410 80be 5fb6 903e
00000090: d876 89be c619 50be b2e5 5c3e accc a3be
000000a0: 18fc 4ebd 3b51 9ebe c865 45be c063 af3d
000000b0: 7a36 603e 421a 7c3e 53bc 5ebe b443 97bd
000000c0: fe45 74be 747a a73d 3ccd 9ebd 9058 03be
000000d0: a0a7 4d3d 08c2 163e
-0.17981267 0.14718857 -0.31042832 -0.08178356 -0.084569976 -0.08663587 0.00658226 -0.091452956
0.1739038 -0.30504888 -0.104670644 -0.20623033 -0.232452 -0.20118904 -0.067340404 0.17065677
0.29114082 0.21345416 0.13577378 0.26689914 -0.24608998 0.29088953 0.08466628 -0.10826814
-0.32229948 -0.29841304 -0.2463623 -0.30889237 -0.1643425 -0.27090657 -0.20216346 -0.10520284
-0.052420527 0.021602005 -0.25012362 0.28264138 -0.26848483 -0.20322332 0.21571997 -0.3199209
-0.050533384 -0.3092135 -0.19277108 0.08563948 0.21895781 0.24619392 -0.21751527 -0.0738596
-0.23854825 0.08177653 -0.07753989 -0.12826753 0.050208688 0.14722455

bias f4 [6]
00000000: d72b 91be ad5f a93e fe8e 53be f00b 20be
00000010: aa79 463e 3197 a33e
-0.2835376 0.33080807 -0.20660016 -0.15629554 0.19382349 0.31951287

weight f4 [16, 6, 3, 3]
00000000: 0c57 a83d 1e06 53bd 54b8 d93d 3a58 59bd
00000010: cc20 bd3d ba5b 073e e4eb ec3d 55ba 0abe
00000020: 185f 373d 26c0 053e 8c23 dabd 72ad f4bd
00000030: 88e1 a7bd 74a3 e33d 5c67 c43d 0853 e9bd
00000040: 9818 cd3d c04a 1d3c 6206 02be f0c0 c0bc
00000050: 3437 cc3d 30d1 003e 80be fbbb 6c30 753d
00000060: a46d c2bc 0051 f7ba 5108 05be 0087 d23d
00000070: a065 a23c 5c28 133d bfdd 06be c001 7dbd
00000080: 6856 71bc 70be 7a3c 0044 b93b d6b0 3bbd
00000090: 6866 d0bd f17e 82bd 3af4 e83d 3cef 15bd
000000a0: 0446 07be c0fa 613b 62fa dbbd c846 66bc
000000b0: 58dd 733d 82dd 953d 408a 23bb a031 70bd
000000c0: 8859 e1bc bab0 ccbd aa9f 0a3e 401b 013c
000000d0: b056 723c 4811 dcbc 80eb a2bc 6ca9 e7bc
000000e0: 10d2 633d c448 e83d 8006 76bc c0e7 72bb
000000f0: 76a8 d5bd b01b 183c 4cde e93d acea bd3d
00000100: c059 fabc 58c9 f9bd 84c9 d43d b06f 1e3d
00000110: 7cdb 1ebd a4ad 1c3d ea37 75bd 0ced 07be
00000120: a948 b9bd bcc7 063d a7fd 8bbd 8467 673d
00000130: 7469 d63d 46d8 34bd 08cd 613d b8d1 ab3d
00000140: ca7c aabd e06b a83d 882a 063e f804 d2bc
00000150: 8034 823c bc36 88bd ba59 aa3d 6244 c2bd
00000160: df07 f2bd 9826 f43d cc08 d4bd a040 bbbc
00000170: b0d4 ce3d 58d9 9ebc 68ed 28bd c059 53bc
00000180: bcbd 753d 738d e1bd 000e f5bb 4d0d 8abd
00000190: f84c a8bc 795f b9bd 9dc8 aabd 2c80 643d
000001a0: ece7 ee3d 48c5 a0bc d0c8 e3bd 598f dabd
000001b0: 18bb 56bd 0051 8c3b 403b 903b 0099 823d
000001c0: 4244 053e 467f cbbd 0cda 70bd 628a cdbd
000001d0: b6a7 19bd a0ed 6f3c c0e3 393b 0dd8 f2bd
000001e0: c00c 16bc ba00 5cbd 44c5 b8bd d699 44bd
000001f0: 60c0 993d 6878 cbbc 7863 8ebc 50fe 343d
00000200: f4a5 4e3d 9eae e43d 7c5d e93d eabe 16bd
00000210: cedf be3d 80b1 c73c ac47 cabc 80df 67bc
00000220: a8bf f23c e282 033e 1b89 b6bd c0a5 f4bb
00000230: 3e9b 3abd 9607 24bd c667 c23d c44a f53d
00000240: 0ab7 9bbd 780d 7d3d 2834 ee3c 98ae dcbc
00000250: b011 0c3c 7040 873c de23 7cbd 587a b13d
00000260: b0a3 e93d c0b6 4abc 24a1 aa3d 3878 58bd
00000270: 74ae ce3d d8a1 b83d 9082 633d 204b 29bc
00000280: 286f 35bd fc0a bebc 28b7 dd3d 8493 ed3d
00000290: b0bb 733d c055 273c bc53 7d3d 5d04 e4bd
000002a0: 408f cdbb 5086 d03c 00d5 833c 08bb 8a3d
000002b0: c0b2 b1bb aa3a cabd 50fa 2ebc 0266 1dbd
000002c0: 483a 953c b017 d5bd 167d aebd e13f 8abd
000002d0: 8031 3d3b fadd 61bd c60e 25bd 48ff f53d
000002e0: e8d9 e23d b05f 04bc 60d4 8bbd 6606 e73d
000002f0: a0a9 333c 1677 c13d ae28 d73d 9692 bd3d
00000300: fc88 dd3d bee0 edbd 8151 c0bd b902 82bd
00000310: 2410 dd3d 2690 d03d f695 a4bd 22f1 73bd
00000320: 7e9a a13d 3612 8f3d b80e d1bd 5424 bbbd
00000330: 9480 8a3d ce75 c2bd c254 903d 823b e9bd
00000340: 14c5 f5bc 8e59 8a3d c0b7 893c 334b 06be
00000350: 8016 283c fcbd 26bd 761f 093e c087 273d
00000360: 52b8 c6bd 44e0 d5bd dc84 043e 5030 a33d
00000370: 00c2 f839 101c 00bc 84ce b83d 89a8 cdbd
00000380: f699 adbd 80cf b63a 467b cfbd f18b 08be
00000390: 1a32 093e 5a23 d03d e456 7abd 0a1c 9e3d
000003a0: a0a4 c23d c0f9 a33c 4cf9 bf3d e03a bd3c
000003b0: 4c26 a5bc 9e4b 0dbd 5b6f ebbd ac07 af3d
000003c0: 6161 94bd 1465 1bbd 76dc 03be 868e 07be
000003d0: 4e57 b9bd 8859 d73d ce94 b5bd a220 993d
000003e0: 40fb d6bb 3c96 b83d c8c7 e5bc cca3 723d
000003f0: 904f 8f3c fac3 d5bd c013 75bb 9286 8a3d
0.08219728 -0.051519506 0.10630861 -0.053062655 0.09234771 0.13218585 0.1156843 -0.13547643
0.044768423 0.1306158 -0.10651311 -0.119471446 -0.081973135 0.111151606 0.09590027 -0.1139279
0.100144565 0.009600341 -0.12697747 -0.0235295 0.09971467 0.12579799 -0.0076826215 0.05986063
-0.023733921 -0.0018868744 -0.12991454 0.102796555 0.01982385 0.03592716 -0.13170527 -0.061769247
-0.0147300735 0.015304193 0.005653858 -0.04582294 -0.101757824 -0.063718684 0.113747075 -0.036605105
-0.13210303 0.0034481734 -0.10741116 -0.0140549615 0.05953726 0.0731764 -0.002495423 -0.058641076
-0.027508512 -0.099946454 0.1353747 0.007880032 0.014791176 -0.02686371 -0.019887686 -0.028279029
0.055620253 0.11342004 -0.015016198 -0.0037064403 -0.10432522 0.009283945 0.11419353 0.09273276
-0.030560374 -0.121966064 0.103899986 0.038680732 -0.038783535 0.038251534 -0.059867777 -0.1327402
-0.09047062 0.032905325 -0.0683549 0.056495205 0.10469332 -0.044151567 0.055127174 0.0838961
-0.08324583 0.082237005 0.13102162 -0.025637135 0.015894175 -0.06651065 0.08317895 -0.09485699
-0.118179075 0.11921424 -0.1035324 -0.022857964 0.10099161 -0.019390747 -0.041242033 -0.012899816
0.059995398 -0.110133074 -0.0074784756 -0.06740818 -0.020544514 -0.09051413 -0.08339045 0.055786297
0.11665329 -0.019625321 -0.11122286 -0.10671873 -0.05242452 0.004282117 0.0044015944 0.06376839
0.1301432 -0.09936385 -0.058801696 -0.1003616 -0.037513457 0.014644057 0.002836451 -0.11857615
-0.009158313 -0.05371163 -0.090220004 -0.047998272 0.07507396 -0.024837688 -0.017381415 0.044187844
0.050451234 0.11166118 0.11394784 -0.036803164 0.09320031 0.02437663 -0.024692379 -0.014152408
0.029632404 0.12842897 -0.089128695 -0.007466048 -0.045558207 -0.040046297 0.094924495 0.11977151
-0.07603271 0.061780423 0.029077604 -0.026938722 0.008549139 0.016510218 -0.061557643 0.08665913
0.11408174 -0.012372673 0.083315164 -0.052849025 0.10091868 0.09015244 0.055544436 -0.010332853
-0.04429546 -0.023198597 0.1082595 0.11600402 0.059505165 0.0102133155 0.061847433 -0.11133645
-0.0062731802 0.02545467 0.016092777 0.06773955 -0.00542292 -0.098744705 -0.010679796 -0.03842736
0.018216267 -0.10404909 -0.08519952 -0.06750465 0.0028868616 -0.055143334 -0.040297292 0.12011582
0.110767186 -0.008079454 -0.06827617 0.11280517 0.010965735 0.09446542 0.10505806 0.09256475
0.10817143 -0.11615132 -0.09390546 -0.063481756 0.10794094 0.10183744 -0.08036415 -0.059556134
0.07890795 0.06985895 -0.102078855 -0.091377884 0.067628056 -0.09495126 0.07047416 -0.11388303
-0.0300012 0.067553625 0.016811252 -0.13114624 0.010259271 -0.040708527 0.13390908 0.040900946
-0.09703125 -0.10443166 0.12941307 0.07968199 0.00047446787 -0.007819191 0.09023765 -0.10041911
-0.08476631 0.0013947338 -0.101309344 -0.13334633 0.13398018 0.10162993 -0.06111802 0.07720192
0.09504056 0.020016551 0.093737215 0.023099363 -0.020159863 -0.034495942 -0.11495849 0.08546385
-0.07245136 -0.037938192 -0.12877068 -0.13237962 -0.09049855 0.105151236 -0.08866273 0.07476927
-0.006560713 0.0901303 -0.028049365 0.05923824 0.017493993 -0.1043777 -0.0037395805 0.067639485

bias f4 [16]
00000000: 0018 5ebc 3a32 bd3d 1e36 6abd 42c3 f4bd
00000010: 30cf 423d 24fa a4bd 1676 30bd 08ac bcbc
00000020: b049 863d a005 2b3c 80b5 d43c b473 39bd
00000030: 246c cdbd 2847 b43d e51b a5bd 8099 abbb
-0.013555527 0.092380956 -0.057180516 -0.11951305 0.04756087 -0.08055523 -0.043081366 -0.02303125
0.065570235 0.010438353 0.025965452 -0.04527636 -0.10030392 0.088026345 -0.08061961 -0.0052368045

weight f4 [120, 400]
00000000: 0c25 1d3c cf97 0f3d 92d4 ec3c 11a4 463d
00000010: 9966 483d 308c c43b 6ae6 a2bc b8f2 65bc
00000020: 00bf c4bc 18fa 22bd c491 0abd 00c1 d0bb
00000030: c200 36bd 9e23 883c edd6 46bd efbb 2a3d
00000040: 609a f9ba 60e5 1dbb 3454 623c 5bfd 20bd
00000050: 870f 4bbd 01fd 1d3d 3b92 21bd d24c ca3c
00000060: 630a 2b3d 2209 04bd 4618 84bc 4f09 463d
00000070: 6ac3 cdbc ed08 4cbd 7a95 873c ad5b 2d3d
00000080: a082 2c3c e792 c1bc a02d 003c 5c8a 7d3c
00000090: b908 103d 4b6e 373d ee0b da3c e95b 173d
000000a0: cfa3 4b3d 7449 4fbc 5253 0ebd a82b 91bb
000000b0: 4eac 0ebd c1e6 403d 123a 923c 348c 2f3c
000000c0: 71fb 473d 7860 1dbc a7be 113d c2eb 8b3c
000000d0: 55cc 48bd 8765 013d 8029 1e3a 6a53 0cbd
000000e0: 9b52 3a3d 29a5 333d a0d4 b83a 2899 363c
000000f0: e56c 37bd 0e53 be3c 1345 43bd 0a4e acbc
00000100: 4a81 9c3c b1f6 013d 00d6 0fba 028f 8f3c
00000110: 1540 00bd c008 f8bb 2878 ccbb ebe5 243d
00000120: ea91 4bbd 4ee1 863c 3035 b6bb 5afb a0bc
00000130: d2ba 933c 1a5f 90bc b760 3f3d 27fd b3bc
00000140: e49a 6b3c 0027 bdbc 8c07 063c ef7e 41bd
00000150: c8e0 2dbd c04c d83b b442 3a3c 0a15 debc
00000160: 126b 823c ad2f c6bc 5af0 b33c 049f 513c
00000170: 1795 e9bc 3f72 183d 40b9 bc3a d88f a1bb
00000180: 1424 1abc 34c9 68bc aa8c b9bc f297 20bd
00000190: 0d2b a3bc cade b9bc 123f b23c 1d73 08bd
000001a0: 9a52 32bd 6320 f4bc f002 47bd 00e4 1cbc
000001b0: 0794 c9bc 2b32 16bd ce1a e73c c651 cd3c
000001c0: cd3c 1f3d b35f 1dbd 9e0e 13bd de8a c43c
000001d0: 52e7 17bd a389 3cbd 4e8f 00bd 70a3 8dbc
000001e0: d04a d4bc 1460 52bc 17eb a9bc dd2b 003d
000001f0: 5049 e73b 5077 bbbc 4e2f ad3c ca78 e6bc
00000200: 4217 9c3c 0e0c 8b3c a7ad cfbc c1ff 183d
00000210: 26f8 0ebd 22ca ad3c 3f6d 4b3d 10a9 c3bc
00000220: 00a2 5639 66b2 83bc 9b66 1f3d bf56 153d
00000230: 7218 d63c f2ff 823c 327d c53c 281b d63b
00000240: c205 913c 1e9b ea3c 7852 4cbc 88eb 293c
00000250: f293 16bd 2844 fabb c26a 983c 2ce6 243c
00000260: b452 083c 1b79 413d 087e 1ebc f972 013d
00000270: 7c08 07bd 7c70 02bd 1609 8abc 3e2b 1fbd
00000280: f399 3fbd 8a72 8bbc 0364 15bd a344 4cbd
00000290: 4a82 0fbd 31d7 403d 343d 0e3c 4861 32bc
000002a0: e12f 1f3d 50e5 c13b 1325 403d a23f fa3c
000002b0: ceb6 2cbd d42e 28bc d7d9 4b3d c01a bbbc
000002c0: aef0 0fbd b62a fc3c 4283 ea3c e33d 33bd
000002d0: c041 53bc 92a5 c53c 0343 e6bc 9791 253d
000002e0: 808c da3b c18c 0b3d eae3 06bd 0abb b3bc
000002f0: 2851 a93b b098 e13b 00ff 8c3b f48d 5a3c
00000300: 3476 15bc 11e4 093d cded c9bc 4f26 313d
00000310: 7db5 d0bc e021 463c 0a8f 09bd 6e78 1cbd
00000320: 15a3 2e3d 338c 333d 8075 f839 4d27 463d
00000330: 0a98 943c c4da 5c3c 6628 9d3c 9882 23bd
00000340: 7a76 bb3c 2adf 07bd 80bb d6bb 7f4c 313d
00000350: d852 9fbb a4cd 81bc fcc8 783c b380 47bd
00000360: b524 18bd e0d1 1abc 384d 2fbc 6e35 d93c
00000370: cdc2 2d3d 2083 e1bc 6acb bf3c 406c f5bc
00000380: 54c1 53bc 3894 70bc e94a 1a3d 89f4 383d
00000390: 7476 1fbc d877 39bc 4cb9 56bc 6864 0f3c
000003a0: e21a 42bd bab7 09bd 1254 903c 38d8 493c
000003b0: 3863 393c 1780 eabc cd7d eebc e96a 413d
000003c0: 866d 21bd 7460 89bc 72d3 9a3c 5373 b9bc
000003d0: 0084 04bb 82b4 923c 1770 153d 43a7 19bd
000003e0: eafc d6bc b20b c03c bd89 abbc a156 3d3d
000003f0: 0b53 183d ad1f 203d d761 2ebd 02c3 9c3c
0.009591352 0.035056885 0.028909955 0.04849631 0.04892597 0.005998157 -0.01988526 -0.014034919
-0.024016857 -0.03978929 -0.03383042 -0.0063706636 -0.044434316 0.016618546 -0.048544813 0.041683134
-0.00190432 -0.0024093017 0.013814021 -0.03930412 -0.049575355 0.03857136 -0.039446097 0.024694834
0.041757952 -0.032235272 -0.016124856 0.04834872 -0.025117595 -0.0498132 0.016550768 0.042323757
0.01052919 -0.023629619 0.007823378 0.015474882 0.03516457 0.044782918 0.026617017 0.036952887
0.049716767 -0.01265179 -0.03474743 -0.004430253 -0.03483229 0.047095064 0.017849956 0.010714579
0.048823778 -0.0096055195 0.03558221 0.017080192 -0.04902299 0.031590965 0.00060334057 -0.034259237
0.045488935 0.04385868 0.0014101453 0.011144914 -0.044781584 0.023232963 -0.047673296 -0.021033306
0.019104619 0.031729404 -0.00054869056 0.017524246 -0.031311113 -0.0075694025 -0.0062399097 0.04025833
-0.0496997 0.016464856 -0.0055605397 -0.019651104 0.018033419 -0.017623473 0.046723094 -0.021971298
0.0143801905 -0.023089886 0.00818051 -0.047240194 -0.042450696 0.006600946 0.011368442 -0.027109642
0.015920196 -0.024192655 0.021965194 0.01279426 -0.028513474 0.03721833 0.001439847 -0.0049304776
-0.009408016 -0.014208127 -0.022650082 -0.039207406 -0.01991799 -0.022689242 0.02175859 -0.033312906
-0.043535806 -0.0298006 -0.048586786 -0.009575844 -0.024606718 -0.036668938 0.028211024 0.025063407
0.038876344 -0.038421344 -0.035902612 0.023991998 -0.03708584 -0.046029698 -0.031386666 -0.017289847
-0.02591458 -0.01284029 -0.020741982 0.03129183 0.0070583 -0.022884041 0.02114072 -0.028133769
0.019054059 0.016973522 -0.025351359 0.03735328 -0.03490462 0.021214548 0.049664732 -0.023884326
0.0002046898 -0.016076278 0.03891621 0.03645968 0.026134703 0.015991185 0.02410755 0.006533999
0.01770294 0.028638419 -0.012470834 0.010371096 -0.036762185 -0.0076375194 0.018605594 0.010064643
0.008320499 0.047234636 -0.009673603 0.031603787 -0.032967076 -0.031845555 -0.016850036 -0.0388596
-0.046777677 -0.01702239 -0.03647233 -0.049870145 -0.035036363 0.047080223 0.008681584 -0.0108874515
0.03886402 0.0059172288 0.046910357 0.03054792 -0.042166524 -0.010265071 0.049768295 -0.022839904
-0.03514164 0.030782085 0.028627042 -0.04376019 -0.012894094 0.024126802 -0.028108126 0.04042205
0.006669581 0.03406978 -0.0329322 -0.021939773 0.0051671453 0.006884657 0.0043028593 0.013339508
-0.00912242 0.033664767 -0.024649525 0.043249425 -0.025477165 0.012093037 -0.03358368 -0.03820079
0.042635996 0.043834876 0.0004738979 0.048377324 0.018138904 0.013479892 0.019184303 -0.039919466
0.022883642 -0.03317181 -0.0065531135 0.043285843 -0.0048621707 -0.015845127 0.015184637 -0.04870672
-0.03714438 -0.009449452 -0.010699563 0.026514735 0.042422105 -0.027528346 0.023412425 -0.029958844
-0.012924511 -0.014683776 0.037669096 0.045155082 -0.009732831 -0.011320077 -0.013105702 0.008751966
-0.04738892 -0.03362248 0.017618213 0.012319617 0.0113151595 -0.028625531 -0.02911272 0.047221098
-0.03941109 -0.016769625 0.018899653 -0.022637999 -0.002022028 0.017908338 0.03648385 -0.03751303
-0.026243646 0.023443077 -0.020939702 0.046225194 0.03718857 0.03909271 -0.042573776 0.019135956

bias f4 [120]
00000000: 90ea aabb 3185 2c3d 0581 16bd f2d8 d83c
00000010: 993f 2e3d 14a6 3e3c 2eaa 1abd 70e6 a2bc
00000020: 2e25 fc3c 6266 43bd e08c 1fbb 2d56 b3bc
00000030: d036 c43b 5d96 cabc ad38 05bd be79 d43c
00000040: 354f 4b3d 7278 d03c 801c 2abc 70bd e0bc
00000050: cdfe 49bd 8044 6bbc 3b0d 2dbd 7742 abbc
00000060: dd38 463d 52b0 ae3c 5fb5 0b3d 60af d4bc
00000070: a67f 853c a03a 0b3b b0fe a3bb 68b1 89bb
00000080: 40c0 abbc 036e 2bbd 5033 12bd 708a bebc
00000090: c3f7 063d b237 b53c 70e9 8fbb 90b2 40bd
000000a0: 46b3 19bd 3550 213d 3222 15bd 8daa 20bd
000000b0: 429b b03c 5eaf 16bd 1da8 42bd 0046 15ba
000000c0: 1c68 96bc 783a 2a3c 0480 86bc a8e2 ea3b
000000d0: d01f 83bb 306a ae3b 07c9 bdbc 90ba 3bbd
000000e0: ef15 363d 47ac a6bc 3ac7 af3c fae5 a0bc
000000f0: 5008 c33b b2f2 ed3c 9086 bcbb 8631 a33c
00000100: 7456 69bc 82f5 38bd 8aef 86bc 01d9 1d3d
00000110: 2bac 133d c04b ea3a d041 463b 93de bbbc
00000120: 63be 2e3d 7ab0 d53c 79dc 283d c211 0dbd
00000130: a356 123d 00d2 23bd acc6 18bc e2df 13bd
00000140: a8bf ac3b b041 8ebc 2d79 13bd 1462 363c
00000150: 0df6 153d fd40 00bd 883f 76bc 904e a2bb
00000160: 6342 cfbc 8060 10bc be09 e13c 60d1 383b
00000170: 72cb 863c 451c 253d 5752 bfbc 3f9c 34bd
00000180: 4350 31bd 0ca8 063c 8488 583c faf7 aebc
00000190: a77f ffbc 005e 16bc 2838 023c a914 2c3d
000001a0: c617 18bd 5dba 463d 71a7 2f3d 001f 083c
000001b0: f0de f8bb c73c 37bd acf2 56bc 18e9 31bd
000001c0: d8be 99bb e0f1 0ebb 3d11 1bbd 673f c1bc
000001d0: d71c 443d 9820 233c fe63 fb3c f0a8 aabb
-0.0052159503 0.04211921 -0.036744136 0.026470635 0.04254112 0.011636276 -0.037759952 -0.019885272
0.030779447 -0.04770506 -0.0024345443 -0.021891678 0.0059879795 -0.024729902 -0.032524753 0.025936957
0.049636085 0.025448058 -0.0103827715 -0.02743408 -0.049315263 -0.014359593 -0.042248946 -0.020905716
0.048394073 0.02132431 0.034108516 -0.025962532 0.01629622 0.002124466 -0.0050047264 -0.0042020567
-0.020965695 -0.041852962 -0.035693467 -0.023259372 0.032951128 0.022121284 -0.0043918416 -0.04704529
-0.037524484 0.039383132 -0.036409564 -0.03922515 0.021558408 -0.036788337 -0.047523607 -0.000569433
-0.01836019 0.010389917 -0.016418464 0.007168133 -0.004001595 0.005322717 -0.023167146 -0.045832217
0.04445451 -0.02034582 0.021457303 -0.019640911 0.0059519187 0.02904639 -0.005753346 0.019921076
-0.014241803 -0.04515601 -0.016471643 0.03853703 0.036052864 0.0017875358 0.003025163 -0.02293328
0.042662036 0.026085127 0.041225884 -0.034440763 0.035727154 -0.039995193 -0.009324711 -0.036102183
0.0052718706 -0.017365307 -0.036004234 0.011131782 0.036611605 -0.031311978 -0.0150297955 -0.004953213
-0.02530021 -0.00881207 0.027470466 0.002820097 0.016454432 0.040310163 -0.023354692 -0.04409432
-0.043289434 0.008218776 0.013216142 -0.021358479 -0.031188799 -0.009177685 0.007947959 0.04201189
-0.037132047 0.048517574 0.042884294 0.008308172 -0.0075949356 -0.044735696 -0.013119381 -0.043435186
-0.00469194 -0.002181165 -0.037858237 -0.023589803 0.047879066 0.009956501 0.030687328 -0.005208127

weight f4 [84, 120]
00000000: 7804 b3bc 145a 9c3d d018 5dbc 02e7 b4bd
00000010: a8f4 9d3d a10b a4bd 00b4 10b9 400a 7ebb
00000020: daf0 a4bd 6497 a43d a207 acbd 4c3a 22bd
00000030: b0d9 a53d 50af 573d c8b7 a23d 9c29 8c3d
00000040: 78ad 9d3c d054 f2bc 7887 b83d 6c8b dd3c
00000050: bc86 8cbd a049 403b 4499 5f3d 3008 953d
00000060: 2a66 97bd 9269 9dbd f489 83bc 8e87 85bd
00000070: 5e45 fabc 8620 a33d 54f4 86bd 38ae ab3d
00000080: 3593 86bd c027 373d 30d5 d6bb 60bd 98bd
00000090: 463e 9c3d 05f4 1abd 64d1 2f3d 32f4 073d
000000a0: 3c99 313d 6954 9bbd 7ef8 a03d 65c1 a1bd
000000b0: 6806 373d 044c 90bd 3c62 05bd c8a4 993c
000000c0: e702 a5bd cca0 c73c 9cfa 913d 17de 3bbd
000000d0: 1cfc 3dbd ef19 5abd 263c 893d 90d9 963d
000000e0: 0c0e af3d f85f 19bd 4eda 43bd 8c17 ae3d
000000f0: f89c 133d 202a 97bc 00a0 ea37 d07f e03c
00000100: 948b 193d 3c92 6b3d b89a 353d 4bc8 30bd
00000110: a04d ba3d 673c a7bd ec47 2a3d 22a3 80bd
00000120: 806d 523d 3043 5b3d 780c 183d 885f 2c3d
00000130: 4d8f 20bd c06a 953d ca93 b63d 9873 043d
00000140: 0dd3 b2bd 1c48 b5bd a06e 06bc 81e8 b6bd
00000150: c4ba 77bd 805a 633d 8828 203d 92e2 a93d
00000160: 3c7a ae3d 605d 043b 2229 863d dc35 1f3d
00000170: c366 60bd e001 80bb 0454 f13c e85c 22bd
00000180: 203a e6bc fa24 96bd 8076 59ba bee4 a13d
00000190: 9cfe 8e3c 3e78 9f3d a040 44bd 4ec1 b63d
000001a0: 9839 35bc 6011 4fbd c8b1 cf3c d8cf 823d
000001b0: 2d92 aebd b951 8cbd 7442 bfbc edb1 41bd
000001c0: af23 93bd 2801 1b3d d046 aabd 8982 b8bd
000001d0: ff98 92bd 2c2d 1f3d e616 9d3d 448a 793d
000001e0: 0ac5 053d ccb6 9a3c a078 933d 3cce 153d
000001f0: a8f1 b3bc fa22 b5bd 40ab 3b3d 7649 ad3d
00000200: bcbc 92bc a802 1c3d e0db c0bb c08a 27bd
00000210: 0890 05bc 3c08 a3bc 98d0 303d cee5 34bd
00000220: 1072 3b3c 3ce6 9f3d 8083 44bc c6e0 1fbd
00000230: c89a a1bd 0853 10bc 608d 4cbc 5049 283d
00000240: 9ada 04bd 00f0 4d3a dce7 b8bd 58e3 463c
00000250: e45a a63c f0d8 083c 68c2 e6bc 6043 253d
00000260: 0088 1db8 8420 ac3d 78d2 a33d fd3d babd
00000270: 9c93 353d 2015 653d 7409 3b3d 2886 3c3c
00000280: a0f6 ff3c 8098 763a 605a a13c 641c 7b3d
00000290: 244f 81bd b96f a7bd d88f b8bc fc7c 963d
000002a0: 42df 55bd fc08 9d3d c742 a2bd d24b ad3d
000002b0: 928c a8bd 6ef1 57bd c0ea c33c 0c1a 083d
000002c0: 86a4 983d 386f de3c 78cd 63bc f476 c93c
000002d0: 9d0b 97bd 3cc3 233d d497 923c 74be 933d
000002e0: 1069 2c3d c73f aabd 4aec a3bd 24a8 3b3d
000002f0: 000c 623b 50bf 8e3c 186a b03d 1470 623d
00000300: 7d09 28bd 5e49 5dbd 1a49 27bd d6bf 52bd
00000310: 2886 a5bd 71e1 10bd 38fe 713d 355a 0bbd
00000320: e8a0 563d 689c 2fbd 8c83 a53c c8a5 2fbc
00000330: 763c 923d 26a4 92bd b403 6a3d 88d0 633d
00000340: 76e1 973d 6080 053b 5767 07bd 8af7 7fbd
00000350: e011 23bc e206 883d 7833 dfbc 1444 a73d
00000360: 80cb 233a 48bb 8cbd cc25 573d 08a2 2f3d
00000370: d40d 9f3d 3422 193d e0fe 28bc a829 073c
00000380: 58f7 91bd 6086 003d 309c 6d3c 9607 883d
00000390: 50f5 aa3d 5369 8cbd c2bb 18bd 2c30 bcbc
000003a0: c7c4 95bd 12b3 f2bc d6e5 87bd 2c5a c63c
000003b0: 4c44 e0bc a0e4 493d bca5 803d c6bc 89bd
000003c0: ceaf 8a3d a0f4 753d 4064 89bb 8842 2a3c
000003d0: a058 523c 54bf b73d 7050 6e3c d000 643d
000003e0: d0cc 433d 966d 28bd 847a 853c 88ce 183d
000003f0: bcb8 5e3d 3e32 91bd 2052 2d3b 000a af3b
-0.021852717 0.076343685 -0.013494685 -0.08833124 0.0771268 -0.080100305 -0.00013799965 -0.0038763434
-0.08053751 0.08036688 -0.08399893 -0.039606377 0.08098161 0.052657425 0.0794521 0.06843874
0.019247755 -0.029581457 0.090102136 0.02704402 -0.06861636 0.002934076 0.054589525 0.07276952
-0.07392533 -0.076861516 -0.016056992 -0.06519996 -0.030550655 0.07965188 -0.06589571 0.08382839
-0.06571046 0.044715643 -0.0065561756 -0.074579954 0.07629065 -0.03783037 0.0429243 0.033191867
0.043359026 -0.07584459 0.07859896 -0.07898215 0.044683844 -0.07045749 -0.032564387 0.018755332
-0.08057194 0.024368666 0.07127878 -0.0458661 -0.04638301 -0.05324739 0.067009255 0.073657155
0.08547601 -0.03744504 -0.047815613 0.08500585 0.03603837 -0.018452704 2.796948e-05 0.027404696
0.037486628 0.057512507 0.044337004 -0.043159764 0.09096837 -0.08165818 0.041572496 -0.06281115
0.05137396 0.053530872 0.037121266 0.042083293 -0.039199162 0.072957516 0.08914907 0.0323368
-0.08731661 -0.088516444 -0.008205086 -0.08931065 -0.060480848 0.05550623 0.039101154 0.08295168
0.08519408 0.0020197257 0.06550814 0.038869724 -0.0547855 -0.0039064735 0.029459007 -0.039639384
-0.028103888 -0.073312715 -0.0008295551 0.07904957 0.017455392 0.07786606 -0.047913194 0.08923589
-0.011061095 -0.05055368 0.025353327 0.06387299 -0.085239746 -0.06851525 -0.023347117 -0.047288824
-0.071845405 0.0378429 -0.08314288 -0.090092726 -0.07158088 0.03886144 0.07670383 0.060922876
0.032658614 0.018885992 0.07200742 0.036573634 -0.021965817 -0.08844562 0.045817614 0.08461277
-0.017912261 0.03808847 -0.005885586 -0.040903807 -0.0081520155 -0.019901387 0.04316768 -0.04416447
0.011440769 0.078075856 -0.011994243 -0.03903272 -0.0789085 -0.008808859 -0.012484878 0.04108554
-0.032435037 0.0007855892 -0.09028599 0.012139164 0.020307012 0.008352503 -0.028168872 0.040347457
-3.7558377e-05 0.08404639 0.07999128 -0.090938546 0.044330224 0.05592835 0.045663312 0.011506595
0.03124553 0.00094068795 0.019696414 0.061306372 -0.06313923 -0.08175606 -0.022529528 0.07348058
-0.05221487 0.07667729 -0.07922893 0.08461727 -0.08229937 -0.05272048 0.023915648 0.033227965
0.07453255 0.027152643 -0.013903968 0.024592854 -0.07375262 0.039981112 0.017894663 0.072140604
0.042092383 -0.08312946 -0.08004053 0.04581465 0.0034492016 0.01742521 0.08613986 0.055282667
-0.041024674 -0.054025047 -0.0408412 -0.05145248 -0.08082229 -0.035371248 0.059080333 -0.034021575
0.052399546 -0.04287377 0.020204328 -0.010720678 0.07140438 -0.07160215 0.057132438 0.055618793
0.0741605 0.0020370707 -0.033057537 -0.06249193 -0.009952992 0.06641938 -0.027246222 0.08167282
0.00062482804 -0.068716586 0.05252628 0.042879134 0.077663094 0.037386134 -0.010314673 0.008249678
-0.07127255 0.03137815 0.01450257 0.06642072 0.08347571 -0.068560265 -0.037288435 -0.022972189
-0.07312923 -0.029626403 -0.066356346 0.02421292 -0.027376316 0.0492903 0.06281611 -0.06725459
0.06771813 0.060047746 -0.004192859 0.010391839 0.012838513 0.0897204 0.014545545 0.055664837
0.047802746 -0.041120134 0.016293772 0.03730634 0.054375395 -0.07089661 0.0026446655 0.0053417683

bias f4 [84]
00000000: 10f3 dc3c 303f 8dbd bba8 aebd 429f b93d
00000010: f0eb afbd 20c5 e23b e2ac 053d 3096 993d
00000020: 6528 81bd 547c 6f3d 4ce6 94bc 585d aa3d
00000030: 70d4 98bc 625a 90bd 7465 0e3d 7cf3 3d3d
00000040: b16a 17bd 53fa a2bd 9000 af3c 30f6 d73b
00000050: c278 17bd 471a 5dbd 0868 2c3c ace7 6a3d
00000060: 6059 32bb 84d8 7cbd cc32 ac3d d002 393d
00000070: e8e4 753d 705f e33c ac1b a73d baa6 ad3d
00000080: f040 3f3d 0073 8d39 607f 92bb afbc 60bd
00000090: d647 66bd c0d8 fdba 78f5 57bc 405a 9b3c
000000a0: 3851 4f3d 34c5 93bd c744 babd 3cdd aebc
000000b0: dde2 0bbd ec9f 133d 00d3 f1b9 4884 903d
000000c0: 324f 7bbd 8b9a 99bd 1fd0 a0bd b453 223d
000000d0: e83f d03c 177f 72bd 60f4 ad3d 28dd 523c
000000e0: 18c6 493d 08d0 333d 9cdf b23c 1ceb bdbc
000000f0: c087 3e3d 5058 313c 03b4 aebd 7800 3a3d
00000100: d82f 85bc 0ada 8d3d 0455 0d3d 8851 323d
00000110: a140 4fbd a01e 573c deac 083d 4806 ad3c
00000120: 8835 8bbd b8f5 9dbc 6c4a da3c 4cb9 1b3d
00000130: b2a2 923d 8c21 c93c 524f a9bd a08d 6b3d
00000140: f4b1 b13d bcd9 ecbc 9683 963d e68b 873d
0.02697137 -0.06896818 -0.085282765 0.09063579 -0.085899234 0.006920472 0.032635577 0.07499349
-0.06306533 0.058468178 -0.01817622 0.08318585 -0.018655986 -0.07048489 0.034764722 0.046374783
-0.036966983 -0.07957902 0.021362573 0.006590627 -0.036980398 -0.05398014 0.01052285 0.057349846
-0.0027213916 -0.061729923 0.08408126 0.045168698 0.060032755 0.02775547 0.08159575 0.08479066
0.04669279 0.00026979297 -0.0044707507 -0.054867443 -0.05622085 -0.0019366965 -0.013181083 0.018963933
0.050614566 -0.07215348 -0.090951495 -0.021345727 -0.0341519 0.036041185 -0.0004612431 0.07056481
-0.061354823 -0.0750018 -0.07852196 0.039630607 0.025421098 -0.059203234 0.084938765 0.012870111
0.049261183 0.043899566 0.02183514 -0.023183398 0.04651618 0.010824278 -0.08530428 0.045410603
-0.016258165 0.06926353 0.034504905 0.043534786 -0.050598744 0.01312986 0.033367984 0.02112116
-0.0679732 -0.019282207 0.026646815 0.03801851 0.07159938 0.02455213 -0.08267082 0.05750811
0.0867652 -0.028912418 0.07349317 0.066184804

weight f4 [10, 84]
00000000: da67 2d3d fd99 c03d 6c39 a5bc e437 cb3c
00000010: 61a3 993d 29c2 da3d 3db6 9e3d 821c 1e3d
00000020: 7d46 77bd b5f8 8a3d 6043 7b3b 229f 603d
00000030: b4b4 ee3c 00e9 e7b9 8690 093d 40e1 873a
00000040: d803 8abc 001a 0eb9 e926 893d bc42 e63c
00000050: 6c5a 2fbd b9ac ac3d c0f3 d73b 7254 2a3d
00000060: a8dc 04bd e44f e2bc f827 613c f82e 293c
00000070: 3cf7 8ebc 063d 563d 8c62 cc3c 04b7 91bc
00000080: 4094 52bd 2409 a4bd 1be9 983d c679 483d
00000090: 7ccd 27bd cbbb 8c3d 6b97 4cbd 17b1 b1bd
000000a0: 1704 823d 5bea 9e3d f8eb 17bd 0a8a 113d
000000b0: c1b5 99bd 008d 58ba 9300 d7bd d422 e2bc
000000c0: cc42 91bd 2704 9dbd 9cbc e13c 39a4 7cbd
000000d0: 39e0 b03d 0053 a8bc 36a2 1c3d 349f 0cbd
000000e0: f050 04bc 8f58 61bd decb 5a3d 000b 71bd
000000f0: 5135 d63d 0af7 213d 1a64 533d 10b4 93bb
00000100: d272 493d b52c 943d fc8a 72bd 143b 7abd
00000110: 942f be3c 502a a6bc 9881 11bd 1b4a d73d
00000120: a6ca 11bd 79c7 9b3d bf80 dc3d 0e9b 9bbd
00000130: 95af 933d bbe2 d3bd e09f a43b 00e6 9cb9
00000140: 6651 293d 4857 0cbd 093d 84bd 1493 8ebc
00000150: 4021 91ba 0caa d3bd 1647 0bbd cbb1 90bd
00000160: 49cb a73d a626 c0bd 1021 98bd 3588 803d
00000170: d87d a7bd 6c1c b33c 9ceb f33c e893 64bc
00000180: dfc2 d53d 9c9c bd3c c012 4bbc 1435 9a3c
00000190: 918f a63d 14b7 76bd 2c75 6fbd 2c69 8cbd
000001a0: 08a0 cbbc 0724 c93d 10f8 2cbc 4c63 e33c
000001b0: 1012 f53b 860b 033d 7487 d43c 4cf7 b53c
000001c0: 429c 6b3d 50b0 4fbc c9ec 943d cf46 4ebd
000001d0: f6dc d7bd 1b0c d33d 0adb 99bd dd31 89bd
000001e0: a086 8f3b b391 81bd 2b48 9e3d 8802 41bc
000001f0: 549e aa3c c7cf 903d 3c6d f53c ce7d 4c3d
00000200: c0e9 a63a c3c0 9d3d 109d 4cbd e1bb 8c3d
00000210: 9abe b0bd e081 553b 3c22 e53c f342 ae3d
00000220: 9160 803d 0a8b 3f3d 60dc dcbb 90d1 d8bd
00000230: e8eb b1bc a36d 973d 22b2 2d3d d65e 1c3d
00000240: 8cb9 993c 06cb 193d a6b1 493d 1b87 73bd
00000250: 26eb 083d 1a1f 3a3d 20bc 2a3c 8402 dc3c
00000260: 2282 5b3d eaf3 13bd 863a 233d f8d2 533c
00000270: fc43 12bd 5e12 abbd 60e8 4d3c d0d9 f1bc
00000280: 2e42 91bd 565c 6abd d884 113c 310b c23d
00000290: 222f 683d 4899 eebc 24e9 ae3c 2beb aa3d
000002a0: 0290 4ebd e67e 09bd 6892 7ebd 1c88 d53c
000002b0: abac d33d 060a 19bd b4b9 8e3c 8b00 d33d
000002c0: e62c ccbd a898 99bd c04c 773b f0c1 63bd
000002d0: 96a5 793d db86 93bd 265d c9bd 4e6f 003d
000002e0: 0b41 5abd b42d ea3c f8c8 5dbc 9c19 853c
000002f0: 5ef4 243d 72a3 b9bd ed75 d03d 818e 883d
00000300: 3e2c 7e3d 542d b53c f23e 1a3d 513b 9f3d
00000310: cae1 173d e3ac b33d 4e1c 0ebd 80b7 f2bb
00000320: ae7e 113d c007 893b a436 ae3c e068 433c
00000330: 4c90 da3c 30de 59bc f03c ebbb 8095 5c3c
00000340: f796 63bd 6002 63bc d01c 70bc f077 dbbb
00000350: cf2b da3d c0c2 713b 6000 dabd 5f7a c13d
00000360: 18e5 11bc f805 613c 6f06 cf3d fb94 61bd
00000370: 4774 cd3d 7a05 71bd 1972 d43d 0472 37bd
00000380: f786 c53d 17df 8f3d 4976 cbbd 1bfd d3bd
00000390: 544d a9bd 6970 d03d 1911 973d 38f0 91bc
000003a0: 1489 e33c 8db3 803d 7afb 95bd 8064 f5ba
000003b0: 5049 90bb f36a 41bd fa8f 443d 73ba d0bd
000003c0: 33db ba3d a8ba 2fbd d086 aebb e6ca 88bd
000003d0: a307 d1bd 9c77 913c 200b 03bc 2954 983d
000003e0: 0760 853d 840a f53c 116e 55bd 9aa7 573d
000003f0: ade3 90bd 4185 b8bd 8467 913c 8f79 afbd
0.04233537 0.09404371 -0.020168982 0.024806924 0.07501865 0.10681564 0.07749603 0.038601406
-0.060369957 0.06785718 0.003833972 0.05483926 0.0291389 -0.00044233352 0.033585094 0.0010366812
-0.016847536 -0.00013551861 0.06696875 0.028107993 -0.042810842 0.08431382 0.0065903366 0.04158444
-0.032436997 -0.027625985 0.013742439 0.01032614 -0.017451875 0.05230429 0.024949335 -0.017787464
-0.051410913 -0.08009556 0.07466336 0.048944257 -0.04096745 0.06871756 -0.04994909 -0.08676355
0.06348436 0.077595435 -0.03709027 0.035532035 -0.0750537 -0.0008260757 -0.104981564 -0.027604498
-0.070928186 -0.076668076 0.027555756 -0.061680052 0.08636517 -0.02054739 0.038240634 -0.034331515
-0.008075938 -0.055016097 0.05341708 -0.05884838 0.10459388 0.039542235 0.051609136 -0.004507549
0.049181767 0.0723509 -0.059214577 -0.061091498 0.023216046 -0.020283848 -0.03552398 0.10512181
-0.03559365 0.07606406 0.10766744 -0.07597934 0.07211224 -0.1034598 0.0050239414 -0.00029926002
0.041337393 -0.034262925 -0.06456954 -0.017404117 -0.0011072531 -0.10335168 -0.03400334 -0.07065161
0.081930704 -0.093823716 -0.07428181 0.062759794 -0.081783 0.021864139 0.029775433 -0.013951279
0.10437559 0.023145966 -0.012394607 0.018824138 0.08132852 -0.06023319 -0.058461353 -0.068559974
-0.024856582 0.09821325 -0.01055719 0.02775731 0.00747896 0.03199341 0.025943495 0.022212647
0.057522066 -0.0126763135 0.07271726 -0.050360497 -0.10540192 0.10305043 -0.075124815 -0.06698964
0.004380062 -0.06326618 0.07728609 -0.011780389 0.02082745 0.070708804 0.029959314 0.049924664
0.0012734458 0.07702782 -0.049954474 0.068717726 -0.08630104 0.0032578632 0.027970426 0.08508863
0.062684186 0.046763457 -0.006740138 -0.10586846 -0.021718934 0.073939584 0.04240621 0.03817638
0.018765233 0.037547134 0.049241684 -0.05945502 0.03342738 0.045439817 0.010420829 0.026856668
0.0535909 -0.036121286 0.039850734 0.012928717 -0.035709366 -0.08353113 0.01256761 -0.029522806
-0.07092701 -0.057216965 0.00888177 0.09474791 0.056685574 -0.029125825 0.021351404 0.08345636
-0.050430305 -0.033568285 -0.062151343 0.026065879 0.10335668 -0.037363075 0.017422535 0.10302838
-0.09969501 -0.0749982 0.0037734956 -0.055604875 0.06094893 -0.07203456 -0.0983222 0.03135615
-0.053284686 0.028586246 -0.013536684 0.016247563 0.04027211 -0.09064378 0.101787426 0.066678055
0.06205391 0.02211634 0.037657686 0.077749856 0.037080564 0.0877321 -0.034694962 -0.007407129
0.0355212 0.004181832 0.021266289 0.01192686 0.026680134 -0.0132976025 -0.007178895 0.013463378
-0.055563893 -0.013855547 -0.014655307 -0.0066976473 0.10652887 0.0036889762 -0.10644603 0.094471686
-0.008904718 0.013734333 0.10108649 -0.05507372 0.10031944 -0.058843113 0.10373325 -0.04478647
0.09644883 0.07024973 -0.099346705 -0.103510104 -0.08266702 0.101776905 0.07376308 -0.01781474
0.027775325 0.062842466 -0.07323356 -0.0018721968 -0.004403271 -0.047221135 0.04798887 -0.10191812
0.0912384 -0.04290262 -0.0053261295 -0.06679325 -0.10206535 0.01775723 -0.007998258 0.07437927
0.065124564 0.02991224 -0.05210692 0.05265007 -0.07074676 -0.09009791 0.017749555 -0.08568107

bias f4 [10]
00000000: b4ec 903c 9fed b33d fc24 b6bc a221 85bd
00000010: f32c a0bd 38f1 cabd 0e51 29bd 2020 173b
00000020: ae81 c7bd ba20 683d
0.017690994 0.08785557 -0.022234432 -0.065005556 -0.078210734 -0.0990929 -0.041337065 0.002305992
-0.09741531 0.056671835
